…
---------------------PPK-means--------------------


Generating Triplets using KMeans tau=0.100000
KMeans algo on h2e space 256
Clustering algorithm name KMeans
F-score	ARI	NMI	0.3810	0.3458	0.5065








---------------------H-𝜓-Kmeans--------------------


Generating Triplets using KMeans tau=0.100000
Generated 1517 triplets
KMeans algo on Triplet embedding space hdim 256 h-psi embed dim 512
Model: "sequential_1"
_________________________________________________________________
Layer (type)                 Output Shape              Param #   
=================================================================
conv1 (Conv1D)               (None, 253, 256)          1280      
_________________________________________________________________
pool1 (MaxPooling1D)         (None, 252, 256)          0         
_________________________________________________________________
conv2 (Conv1D)               (None, 245, 512)          1049088   
_________________________________________________________________
pool2 (MaxPooling1D)         (None, 244, 512)          0         
_________________________________________________________________
dropout_1 (Dropout)          (None, 244, 512)          0         
_________________________________________________________________
flatten (Flatten)            (None, 124928)            0         
_________________________________________________________________
embeddings (Dense)           (None, 512)               63963648  
=================================================================
Total params: 65,014,016
Trainable params: 65,014,016
Non-trainable params: 0
_________________________________________________________________
Model: "model_1"
__________________________________________________________________________________________________
Layer (type)                    Output Shape         Param #     Connected to                     
==================================================================================================
anchor_input (InputLayer)       (None, 256, 1)       0                                            
__________________________________________________________________________________________________
positive_input (InputLayer)     (None, 256, 1)       0                                            
__________________________________________________________________________________________________
negative_input (InputLayer)     (None, 256, 1)       0                                            
__________________________________________________________________________________________________
sequential_1 (Sequential)       (None, 512)          65014016    anchor_input[0][0]               
                                                                 positive_input[0][0]             
                                                                 negative_input[0][0]             
__________________________________________________________________________________________________
lambda_1 (Lambda)               (None,)              0           sequential_1[1][0]               
…
Clustering algorithm name KMeans
F-score	ARI	NMI	0.3341	0.2961	0.4688
Generating Triplets using KMeans tau=0.100000
KMeans algo on h2e space 256
Clustering algorithm name KMeans
F-score	ARI	NMI	0.3810	0.3458	0.5065
Generating Triplets using KMeans tau=0.100000
Generated 1517 triplets
KMeans algo on Triplet embedding space hdim 32 h-psi embed dim 512
Model: "sequential_1"
_________________________________________________________________
Layer (type)                 Output Shape              Param #   
=================================================================
conv1 (Conv1D)               (None, 29, 256)           1280      
_________________________________________________________________
pool1 (MaxPooling1D)         (None, 28, 256)           0         
_________________________________________________________________
conv2 (Conv1D)               (None, 21, 512)           1049088   
_________________________________________________________________
pool2 (MaxPooling1D)         (None, 20, 512)           0         
_________________________________________________________________
dropout_1 (Dropout)          (None, 20, 512)           0         
_________________________________________________________________
flatten (Flatten)            (None, 10240)             0         
_________________________________________________________________
embeddings (Dense)           (None, 512)               5243392   
=================================================================
Total params: 6,293,760
Trainable params: 6,293,760
Non-trainable params: 0
_________________________________________________________________
Model: "model_1"
__________________________________________________________________________________________________
Layer (type)                    Output Shape         Param #     Connected to                     
==================================================================================================
anchor_input (InputLayer)       (None, 32, 1)        0                                            
__________________________________________________________________________________________________
positive_input (InputLayer)     (None, 32, 1)        0                                            
__________________________________________________________________________________________________
negative_input (InputLayer)     (None, 32, 1)        0                                            
__________________________________________________________________________________________________
sequential_1 (Sequential)       (None, 512)          6293760     anchor_input[0][0]               
                                                                 positive_input[0][0]             
                                                                 negative_input[0][0]             
__________________________________________________________________________________________________
lambda_1 (Lambda)               (None,)              0           sequential_1[1][0]               
…
 - 0s - loss: 10.0559 - val_loss: 9.8214
Epoch 9/10
 - 0s - loss: 10.0384 - val_loss: 10.0180
Epoch 10/10
 - 0s - loss: 10.0231 - val_loss: 10.2838
Clustering algorithm name KMeans
F-score	ARI	NMI	0.1138	0.0653	0.1648
Generating Triplets using KMeans tau=0.100000
Generated 1517 triplets
KMeans algo on Triplet embedding space hdim 64 h-psi embed dim 512
Model: "sequential_1"
_________________________________________________________________
Layer (type)                 Output Shape              Param #   
=================================================================
conv1 (Conv1D)               (None, 61, 256)           1280      
_________________________________________________________________
pool1 (MaxPooling1D)         (None, 60, 256)           0         
_________________________________________________________________
conv2 (Conv1D)               (None, 53, 512)           1049088   
_________________________________________________________________
pool2 (MaxPooling1D)         (None, 52, 512)           0         
_________________________________________________________________
dropout_1 (Dropout)          (None, 52, 512)           0         
_________________________________________________________________
flatten (Flatten)            (None, 26624)             0         
_________________________________________________________________
embeddings (Dense)           (None, 512)               13632000  
=================================================================
Total params: 14,682,368
Trainable params: 14,682,368
Non-trainable params: 0
_________________________________________________________________
Model: "model_1"
__________________________________________________________________________________________________
Layer (type)                    Output Shape         Param #     Connected to                     
==================================================================================================
anchor_input (InputLayer)       (None, 64, 1)        0                                            
__________________________________________________________________________________________________
positive_input (InputLayer)     (None, 64, 1)        0                                            
__________________________________________________________________________________________________
negative_input (InputLayer)     (None, 64, 1)        0                                            
__________________________________________________________________________________________________
sequential_1 (Sequential)       (None, 512)          14682368    anchor_input[0][0]               
                                                                 positive_input[0][0]             
                                                                 negative_input[0][0]             
__________________________________________________________________________________________________
lambda_1 (Lambda)               (None,)              0           sequential_1[1][0]               
…
 - 0s - loss: 10.3174 - val_loss: 10.2465
Epoch 9/10
 - 0s - loss: 10.3391 - val_loss: 10.2063
Epoch 10/10
 - 0s - loss: 10.3255 - val_loss: 10.4373
Clustering algorithm name KMeans
F-score	ARI	NMI	0.2059	0.1630	0.3005
Generating Triplets using KMeans tau=0.100000
Generated 1517 triplets
KMeans algo on Triplet embedding space hdim 128 h-psi embed dim 512
Model: "sequential_1"
_________________________________________________________________
Layer (type)                 Output Shape              Param #   
=================================================================
conv1 (Conv1D)               (None, 125, 256)          1280      
_________________________________________________________________
pool1 (MaxPooling1D)         (None, 124, 256)          0         
_________________________________________________________________
conv2 (Conv1D)               (None, 117, 512)          1049088   
_________________________________________________________________
pool2 (MaxPooling1D)         (None, 116, 512)          0         
_________________________________________________________________
dropout_1 (Dropout)          (None, 116, 512)          0         
_________________________________________________________________
flatten (Flatten)            (None, 59392)             0         
_________________________________________________________________
embeddings (Dense)           (None, 512)               30409216  
=================================================================
Total params: 31,459,584
Trainable params: 31,459,584
Non-trainable params: 0
_________________________________________________________________
Model: "model_1"
__________________________________________________________________________________________________
Layer (type)                    Output Shape         Param #     Connected to                     
==================================================================================================
anchor_input (InputLayer)       (None, 128, 1)       0                                            
__________________________________________________________________________________________________
positive_input (InputLayer)     (None, 128, 1)       0                                            
__________________________________________________________________________________________________
negative_input (InputLayer)     (None, 128, 1)       0                                            
__________________________________________________________________________________________________
sequential_1 (Sequential)       (None, 512)          31459584    anchor_input[0][0]               
                                                                 positive_input[0][0]             
                                                                 negative_input[0][0]             
__________________________________________________________________________________________________
lambda_1 (Lambda)               (None,)              0           sequential_1[1][0]               
…
 - 1s - loss: 14.6048 - val_loss: 10.3228
Epoch 19/20
 - 1s - loss: 13.8601 - val_loss: 10.2994
Epoch 20/20
 - 1s - loss: 14.6728 - val_loss: 14.2883
Clustering algorithm name KMeans
F-score	ARI	NMI	0.3958	0.3630	0.5193
Generating Triplets using KMeans tau=0.100000
Generated 1517 triplets
KMeans algo on Triplet embedding space hdim 256 h-psi embed dim 64
Model: "sequential_1"
_________________________________________________________________
Layer (type)                 Output Shape              Param #   
=================================================================
conv1 (Conv1D)               (None, 253, 256)          1280      
_________________________________________________________________
pool1 (MaxPooling1D)         (None, 252, 256)          0         
_________________________________________________________________
conv2 (Conv1D)               (None, 245, 512)          1049088   
_________________________________________________________________
pool2 (MaxPooling1D)         (None, 244, 512)          0         
_________________________________________________________________
dropout_1 (Dropout)          (None, 244, 512)          0         
_________________________________________________________________
flatten (Flatten)            (None, 124928)            0         
_________________________________________________________________
embeddings (Dense)           (None, 64)                7995456   
=================================================================
Total params: 9,045,824
Trainable params: 9,045,824
Non-trainable params: 0
_________________________________________________________________
Model: "model_1"
__________________________________________________________________________________________________
Layer (type)                    Output Shape         Param #     Connected to                     
==================================================================================================
anchor_input (InputLayer)       (None, 256, 1)       0                                            
__________________________________________________________________________________________________
positive_input (InputLayer)     (None, 256, 1)       0                                            
__________________________________________________________________________________________________
negative_input (InputLayer)     (None, 256, 1)       0                                            
__________________________________________________________________________________________________
sequential_1 (Sequential)       (None, 64)           9045824     anchor_input[0][0]               
                                                                 positive_input[0][0]             
                                                                 negative_input[0][0]             
__________________________________________________________________________________________________
lambda_1 (Lambda)               (None,)              0           sequential_1[1][0]               
…
 - 1s - loss: 1.4787 - val_loss: 1.4728
Epoch 9/10
 - 1s - loss: 1.4737 - val_loss: 1.4876
Epoch 10/10
 - 1s - loss: 1.4706 - val_loss: 1.4826
Clustering algorithm name KMeans
F-score	ARI	NMI	0.2647	0.2249	0.3640
Generating Triplets using KMeans tau=0.100000
Generated 1517 triplets
KMeans algo on Triplet embedding space hdim 256 h-psi embed dim 128
Model: "sequential_1"
_________________________________________________________________
Layer (type)                 Output Shape              Param #   
=================================================================
conv1 (Conv1D)               (None, 253, 256)          1280      
_________________________________________________________________
pool1 (MaxPooling1D)         (None, 252, 256)          0         
_________________________________________________________________
conv2 (Conv1D)               (None, 245, 512)          1049088   
_________________________________________________________________
pool2 (MaxPooling1D)         (None, 244, 512)          0         
_________________________________________________________________
dropout_1 (Dropout)          (None, 244, 512)          0         
_________________________________________________________________
flatten (Flatten)            (None, 124928)            0         
_________________________________________________________________
embeddings (Dense)           (None, 128)               15990912  
=================================================================
Total params: 17,041,280
Trainable params: 17,041,280
Non-trainable params: 0
_________________________________________________________________
Model: "model_1"
__________________________________________________________________________________________________
Layer (type)                    Output Shape         Param #     Connected to                     
==================================================================================================
anchor_input (InputLayer)       (None, 256, 1)       0                                            
__________________________________________________________________________________________________
positive_input (InputLayer)     (None, 256, 1)       0                                            
__________________________________________________________________________________________________
negative_input (InputLayer)     (None, 256, 1)       0                                            
__________________________________________________________________________________________________
sequential_1 (Sequential)       (None, 128)          17041280    anchor_input[0][0]               
                                                                 positive_input[0][0]             
                                                                 negative_input[0][0]             
__________________________________________________________________________________________________
lambda_1 (Lambda)               (None,)              0           sequential_1[1][0]               
…
 - 1s - loss: 2.7806 - val_loss: 2.7384
Epoch 9/10
 - 1s - loss: 2.7645 - val_loss: 2.7647
Epoch 10/10
 - 1s - loss: 2.7523 - val_loss: 2.7901
Clustering algorithm name KMeans
F-score	ARI	NMI	0.2881	0.2496	0.4024
Generating Triplets using KMeans tau=0.100000
Generated 1517 triplets
KMeans algo on Triplet embedding space hdim 256 h-psi embed dim 256
Model: "sequential_1"
_________________________________________________________________
Layer (type)                 Output Shape              Param #   
=================================================================
conv1 (Conv1D)               (None, 253, 256)          1280      
_________________________________________________________________
pool1 (MaxPooling1D)         (None, 252, 256)          0         
_________________________________________________________________
conv2 (Conv1D)               (None, 245, 512)          1049088   
_________________________________________________________________
pool2 (MaxPooling1D)         (None, 244, 512)          0         
_________________________________________________________________
dropout_1 (Dropout)          (None, 244, 512)          0         
_________________________________________________________________
flatten (Flatten)            (None, 124928)            0         
_________________________________________________________________
embeddings (Dense)           (None, 256)               31981824  
=================================================================
Total params: 33,032,192
Trainable params: 33,032,192
Non-trainable params: 0
_________________________________________________________________
Model: "model_1"
__________________________________________________________________________________________________
Layer (type)                    Output Shape         Param #     Connected to                     
==================================================================================================
anchor_input (InputLayer)       (None, 256, 1)       0                                            
__________________________________________________________________________________________________
positive_input (InputLayer)     (None, 256, 1)       0                                            
__________________________________________________________________________________________________
negative_input (InputLayer)     (None, 256, 1)       0                                            
__________________________________________________________________________________________________
sequential_1 (Sequential)       (None, 256)          33032192    anchor_input[0][0]               
                                                                 positive_input[0][0]             
                                                                 negative_input[0][0]             
__________________________________________________________________________________________________
lambda_1 (Lambda)               (None,)              0           sequential_1[1][0]               
…
