…
---------------------PPK-means--------------------


Generating Triplets using KMeans tau=0.100000
KMeans algo on h2e space 256
Clustering algorithm name KMeans
F-score	ARI	NMI	0.4040	0.3361	0.4567








---------------------H-𝜓-Kmeans--------------------


Generating Triplets using KMeans tau=0.100000
Generated 6621 triplets
KMeans algo on Triplet embedding space hdim 256 h-psi embed dim 512
Model: "sequential_1"
_________________________________________________________________
Layer (type)                 Output Shape              Param #   
=================================================================
conv1 (Conv1D)               (None, 249, 64)           576       
_________________________________________________________________
pool1 (MaxPooling1D)         (None, 124, 64)           0         
_________________________________________________________________
conv2 (Conv1D)               (None, 121, 32)           8224      
_________________________________________________________________
pool2 (MaxPooling1D)         (None, 60, 32)            0         
_________________________________________________________________
dropout_1 (Dropout)          (None, 60, 32)            0         
_________________________________________________________________
flatten (Flatten)            (None, 1920)              0         
_________________________________________________________________
embeddings (Dense)           (None, 512)               983552    
=================================================================
Total params: 992,352
Trainable params: 992,352
Non-trainable params: 0
_________________________________________________________________
Model: "model_1"
__________________________________________________________________________________________________
Layer (type)                    Output Shape         Param #     Connected to                     
==================================================================================================
anchor_input (InputLayer)       (None, 256, 1)       0                                            
__________________________________________________________________________________________________
positive_input (InputLayer)     (None, 256, 1)       0                                            
__________________________________________________________________________________________________
negative_input (InputLayer)     (None, 256, 1)       0                                            
__________________________________________________________________________________________________
sequential_1 (Sequential)       (None, 512)          992352      anchor_input[0][0]               
                                                                 positive_input[0][0]             
                                                                 negative_input[0][0]             
__________________________________________________________________________________________________
lambda_1 (Lambda)               (None,)              0           sequential_1[1][0]               
…
Clustering algorithm name KMeans
F-score	ARI	NMI	0.3892	0.3207	0.4449
Generating Triplets using KMeans tau=0.000000
KMeans algo on h2e space 256
Clustering algorithm name KMeans
F-score	ARI	NMI	0.4040	0.3361	0.4567
Generating Triplets using KMeans tau=0.100000
Generated 6621 triplets
KMeans algo on Triplet embedding space hdim 32 h-psi embed dim 512
Model: "sequential_1"
_________________________________________________________________
Layer (type)                 Output Shape              Param #   
=================================================================
conv1 (Conv1D)               (None, 25, 64)            576       
_________________________________________________________________
pool1 (MaxPooling1D)         (None, 12, 64)            0         
_________________________________________________________________
conv2 (Conv1D)               (None, 9, 32)             8224      
_________________________________________________________________
pool2 (MaxPooling1D)         (None, 4, 32)             0         
_________________________________________________________________
dropout_1 (Dropout)          (None, 4, 32)             0         
_________________________________________________________________
flatten (Flatten)            (None, 128)               0         
_________________________________________________________________
embeddings (Dense)           (None, 512)               66048     
=================================================================
Total params: 74,848
Trainable params: 74,848
Non-trainable params: 0
_________________________________________________________________
Model: "model_1"
__________________________________________________________________________________________________
Layer (type)                    Output Shape         Param #     Connected to                     
==================================================================================================
anchor_input (InputLayer)       (None, 32, 1)        0                                            
__________________________________________________________________________________________________
positive_input (InputLayer)     (None, 32, 1)        0                                            
__________________________________________________________________________________________________
negative_input (InputLayer)     (None, 32, 1)        0                                            
__________________________________________________________________________________________________
sequential_1 (Sequential)       (None, 512)          74848       anchor_input[0][0]               
                                                                 positive_input[0][0]             
                                                                 negative_input[0][0]             
__________________________________________________________________________________________________
lambda_1 (Lambda)               (None,)              0           sequential_1[1][0]               
…
Epoch 8/10
 - 0s - loss: 2.5283 - val_loss: 2.4152
Epoch 9/10
 - 0s - loss: 2.5864 - val_loss: 2.1761
Epoch 10/10
 - 0s - loss: 2.4195 - val_loss: 2.3342
Clustering algorithm name KMeans
F-score	ARI	NMI	0.3305	0.2526	0.3836
Generating Triplets using KMeans tau=0.100000
Generated 6621 triplets
KMeans algo on Triplet embedding space hdim 64 h-psi embed dim 512
Model: "sequential_1"
_________________________________________________________________
Layer (type)                 Output Shape              Param #   
=================================================================
conv1 (Conv1D)               (None, 57, 64)            576       
_________________________________________________________________
pool1 (MaxPooling1D)         (None, 28, 64)            0         
_________________________________________________________________
conv2 (Conv1D)               (None, 25, 32)            8224      
_________________________________________________________________
pool2 (MaxPooling1D)         (None, 12, 32)            0         
_________________________________________________________________
dropout_1 (Dropout)          (None, 12, 32)            0         
_________________________________________________________________
flatten (Flatten)            (None, 384)               0         
_________________________________________________________________
embeddings (Dense)           (None, 512)               197120    
=================================================================
Total params: 205,920
Trainable params: 205,920
Non-trainable params: 0
_________________________________________________________________
Model: "model_1"
__________________________________________________________________________________________________
Layer (type)                    Output Shape         Param #     Connected to                     
==================================================================================================
anchor_input (InputLayer)       (None, 64, 1)        0                                            
__________________________________________________________________________________________________
positive_input (InputLayer)     (None, 64, 1)        0                                            
__________________________________________________________________________________________________
negative_input (InputLayer)     (None, 64, 1)        0                                            
__________________________________________________________________________________________________
sequential_1 (Sequential)       (None, 512)          205920      anchor_input[0][0]               
                                                                 positive_input[0][0]             
                                                                 negative_input[0][0]             
__________________________________________________________________________________________________
lambda_1 (Lambda)               (None,)              0           sequential_1[1][0]               
…
 - 0s - loss: 5.2370 - val_loss: 4.5675
Epoch 9/10
 - 0s - loss: 5.0449 - val_loss: 4.5771
Epoch 10/10
 - 0s - loss: 5.0580 - val_loss: 4.9332
Clustering algorithm name KMeans
F-score	ARI	NMI	0.3381	0.2631	0.4053
Generating Triplets using KMeans tau=0.100000
Generated 6621 triplets
KMeans algo on Triplet embedding space hdim 128 h-psi embed dim 512
Model: "sequential_1"
_________________________________________________________________
Layer (type)                 Output Shape              Param #   
=================================================================
conv1 (Conv1D)               (None, 121, 64)           576       
_________________________________________________________________
pool1 (MaxPooling1D)         (None, 60, 64)            0         
_________________________________________________________________
conv2 (Conv1D)               (None, 57, 32)            8224      
_________________________________________________________________
pool2 (MaxPooling1D)         (None, 28, 32)            0         
_________________________________________________________________
dropout_1 (Dropout)          (None, 28, 32)            0         
_________________________________________________________________
flatten (Flatten)            (None, 896)               0         
_________________________________________________________________
embeddings (Dense)           (None, 512)               459264    
=================================================================
Total params: 468,064
Trainable params: 468,064
Non-trainable params: 0
_________________________________________________________________
Model: "model_1"
__________________________________________________________________________________________________
Layer (type)                    Output Shape         Param #     Connected to                     
==================================================================================================
anchor_input (InputLayer)       (None, 128, 1)       0                                            
__________________________________________________________________________________________________
positive_input (InputLayer)     (None, 128, 1)       0                                            
__________________________________________________________________________________________________
negative_input (InputLayer)     (None, 128, 1)       0                                            
__________________________________________________________________________________________________
sequential_1 (Sequential)       (None, 512)          468064      anchor_input[0][0]               
                                                                 positive_input[0][0]             
                                                                 negative_input[0][0]             
__________________________________________________________________________________________________
lambda_1 (Lambda)               (None,)              0           sequential_1[1][0]               
…
Epoch 8/10
 - 0s - loss: 9.0425 - val_loss: 9.4668
Epoch 9/10
 - 0s - loss: 8.8217 - val_loss: 8.3979
Epoch 10/10
 - 0s - loss: 8.9299 - val_loss: 8.5706
Clustering algorithm name KMeans
F-score	ARI	NMI	0.4370	0.3711	0.4607
Generating Triplets using KMeans tau=0.100000
Generated 6621 triplets
KMeans algo on Triplet embedding space hdim 256 h-psi embed dim 64
Model: "sequential_1"
_________________________________________________________________
Layer (type)                 Output Shape              Param #   
=================================================================
conv1 (Conv1D)               (None, 249, 64)           576       
_________________________________________________________________
pool1 (MaxPooling1D)         (None, 124, 64)           0         
_________________________________________________________________
conv2 (Conv1D)               (None, 121, 32)           8224      
_________________________________________________________________
pool2 (MaxPooling1D)         (None, 60, 32)            0         
_________________________________________________________________
dropout_1 (Dropout)          (None, 60, 32)            0         
_________________________________________________________________
flatten (Flatten)            (None, 1920)              0         
_________________________________________________________________
embeddings (Dense)           (None, 64)                122944    
=================================================================
Total params: 131,744
Trainable params: 131,744
Non-trainable params: 0
_________________________________________________________________
Model: "model_1"
__________________________________________________________________________________________________
Layer (type)                    Output Shape         Param #     Connected to                     
==================================================================================================
anchor_input (InputLayer)       (None, 256, 1)       0                                            
__________________________________________________________________________________________________
positive_input (InputLayer)     (None, 256, 1)       0                                            
__________________________________________________________________________________________________
negative_input (InputLayer)     (None, 256, 1)       0                                            
__________________________________________________________________________________________________
sequential_1 (Sequential)       (None, 64)           131744      anchor_input[0][0]               
                                                                 positive_input[0][0]             
                                                                 negative_input[0][0]             
__________________________________________________________________________________________________
lambda_1 (Lambda)               (None,)              0           sequential_1[1][0]               
…
 - 0s - loss: 1.5482 - val_loss: 1.5122
Epoch 9/10
 - 0s - loss: 1.5357 - val_loss: 1.3300
Epoch 10/10
 - 0s - loss: 1.5934 - val_loss: 1.3298
Clustering algorithm name KMeans
F-score	ARI	NMI	0.3478	0.2716	0.4045
Generating Triplets using KMeans tau=0.100000
Generated 6621 triplets
KMeans algo on Triplet embedding space hdim 256 h-psi embed dim 128
Model: "sequential_1"
_________________________________________________________________
Layer (type)                 Output Shape              Param #   
=================================================================
conv1 (Conv1D)               (None, 249, 64)           576       
_________________________________________________________________
pool1 (MaxPooling1D)         (None, 124, 64)           0         
_________________________________________________________________
conv2 (Conv1D)               (None, 121, 32)           8224      
_________________________________________________________________
pool2 (MaxPooling1D)         (None, 60, 32)            0         
_________________________________________________________________
dropout_1 (Dropout)          (None, 60, 32)            0         
_________________________________________________________________
flatten (Flatten)            (None, 1920)              0         
_________________________________________________________________
embeddings (Dense)           (None, 128)               245888    
=================================================================
Total params: 254,688
Trainable params: 254,688
Non-trainable params: 0
_________________________________________________________________
Model: "model_1"
__________________________________________________________________________________________________
Layer (type)                    Output Shape         Param #     Connected to                     
==================================================================================================
anchor_input (InputLayer)       (None, 256, 1)       0                                            
__________________________________________________________________________________________________
positive_input (InputLayer)     (None, 256, 1)       0                                            
__________________________________________________________________________________________________
negative_input (InputLayer)     (None, 256, 1)       0                                            
__________________________________________________________________________________________________
sequential_1 (Sequential)       (None, 128)          254688      anchor_input[0][0]               
                                                                 positive_input[0][0]             
                                                                 negative_input[0][0]             
__________________________________________________________________________________________________
lambda_1 (Lambda)               (None,)              0           sequential_1[1][0]               
…
 - 0s - loss: 2.8412 - val_loss: 3.0686
Epoch 9/10
 - 0s - loss: 2.9238 - val_loss: 2.5733
Epoch 10/10
 - 0s - loss: 2.8358 - val_loss: 2.6172
Clustering algorithm name KMeans
F-score	ARI	NMI	0.3668	0.2935	0.4203
Generating Triplets using KMeans tau=0.100000
Generated 6621 triplets
KMeans algo on Triplet embedding space hdim 256 h-psi embed dim 256
Model: "sequential_1"
_________________________________________________________________
Layer (type)                 Output Shape              Param #   
=================================================================
conv1 (Conv1D)               (None, 249, 64)           576       
_________________________________________________________________
pool1 (MaxPooling1D)         (None, 124, 64)           0         
_________________________________________________________________
conv2 (Conv1D)               (None, 121, 32)           8224      
_________________________________________________________________
pool2 (MaxPooling1D)         (None, 60, 32)            0         
_________________________________________________________________
dropout_1 (Dropout)          (None, 60, 32)            0         
_________________________________________________________________
flatten (Flatten)            (None, 1920)              0         
_________________________________________________________________
embeddings (Dense)           (None, 256)               491776    
=================================================================
Total params: 500,576
Trainable params: 500,576
Non-trainable params: 0
_________________________________________________________________
Model: "model_1"
__________________________________________________________________________________________________
Layer (type)                    Output Shape         Param #     Connected to                     
==================================================================================================
anchor_input (InputLayer)       (None, 256, 1)       0                                            
__________________________________________________________________________________________________
positive_input (InputLayer)     (None, 256, 1)       0                                            
__________________________________________________________________________________________________
negative_input (InputLayer)     (None, 256, 1)       0                                            
__________________________________________________________________________________________________
sequential_1 (Sequential)       (None, 256)          500576      anchor_input[0][0]               
                                                                 positive_input[0][0]             
                                                                 negative_input[0][0]             
__________________________________________________________________________________________________
lambda_1 (Lambda)               (None,)              0           sequential_1[1][0]               
…
